model.pth (torch, 89871 bytes, 8 tensors)

conv1.weight f4 [10, 1, 5, 5]
000000 ce 8c d1 3d e6 8c 18 be 0c 47 52 be 0c 45 eb bd
       0.102319345 -0.14897498 -0.20534915 -0.11487779
000010 b9 6d a2 be c1 2b 39 3e 85 7a 67 bc f3 a1 3d 3d
       -0.31724337 0.18083097 -0.014128332 0.046297025
000020 12 ee 3b bc 22 7a 3a bd a1 a9 33 3e 4a ca 3a 3e
       -0.011470335 -0.04552663 0.17545177 0.1824123
000030 26 af 7b 3e 91 d6 b0 3d 2b 47 a7 3d 88 ec 0a 3d
       0.24578533 0.08634675 0.08167871 0.03391698
000040 3c f0 1f 3e ba 39 10 3e ea 01 98 3e 51 78 32 3e
       0.15618986 0.14084521 0.2968896 0.1742871
000050 88 23 05 be 43 f3 2a be 46 e7 fa bd 5b 71 0e be
       -0.13001835 -0.1669436 -0.12251143 -0.13910429
000060 90 71 30 bd 11 24 c4 3d c2 f1 90 3e c3 bf 04 3e
       -0.04307705 0.095771916 0.28309447 0.12963776
000070 4a 69 b3 be c9 c7 bf bd 1b ea 3b 3e 73 0b bd 3e
       -0.35041267 -0.09364278 0.18351023 0.36922798
000080 17 29 d4 3d c8 03 b3 be d3 52 b1 be 4c 9f c2 3d
       0.103594 -0.34963822 -0.34633502 0.0950304
000090 a7 3a c3 3e 7d 90 b9 bd 03 79 d9 bd d3 7d 7c be
       0.38130686 -0.09060762 -0.10618784 -0.24657373
0000a0 14 b6 b5 3e 38 e8 a4 3d 37 b7 12 3e f9 a8 a5 bd
       0.35490477 0.08052105 0.14327703 -0.080888696
0000b0 de 3e 23 be 36 72 79 3e a0 4f 6a 3d 8b cf 17 3e
       -0.1594195 0.24359974 0.057204843 0.14825265
0000c0 b5 ff 60 bc b8 c1 41 3c 03 5b ad be 40 d7 3f be
       -0.01373284 0.011825971 -0.338585 -0.18734455
0000d0 55 7d fd 3d e6 dc 98 3d 4a e0 9f 3e ab 28 5d 3c
       0.12377421 0.07464008 0.31225806 0.0134984655
0000e0 8d 8f 1c bd ae d5 a9 3c dd 9f a7 3e a4 10 1c 3e
       -0.03822284 0.020731773 0.32739154 0.15240723
0000f0 79 61 34 be 06 3c 53 3e d4 30 aa 3e 30 01 ad 3e
       -0.17615308 0.20628366 0.33240378 0.33789968
000100 ce 28 03 be a7 0d f8 3c a8 15 04 3e 09 03 3d 3e
       -0.12808535 0.030279947 0.12898886 0.18458189
000110 ae 72 f5 bd 98 b9 6b be 1e a6 29 3e ee 13 29 3d
       -0.11984764 -0.23020017 0.16567275 0.041278772
000120 37 c7 0e 3e d4 ce 38 bd 79 dc 33 bd 1c 4a 07 3e
       0.13943182 -0.04511912 -0.04391143 0.13211864
000130 d5 a2 6d 3e 99 5d 83 3e 82 0b 89 bd c8 e2 3a 3e
       0.23206647 0.25657347 -0.06691648 0.18250573
000140 2c 85 0c be 29 cc b6 bd e9 30 a6 3d 88 63 26 3d
       -0.13722676 -0.08925659 0.081147976 0.040622264
000150 37 a5 45 3e ae 65 0c be 19 65 4a be 20 81 b9 3d
       0.19301306 -0.13710663 -0.19765128 0.09057832
000160 6c 2f 5e bd 0a 19 00 3e 09 e7 82 3d df 45 52 be
       -0.054244444 0.12509552 0.06391723 -0.20534466
000170 78 b0 a4 bd e3 05 2e bd d2 d1 47 be 79 4e 8c bd
       -0.08041471 -0.042486083 -0.19513634 -0.06850905
000180 3c d3 27 3d f2 4a 90 bd 1a 78 34 be b4 1e 04 be
       0.040972933 -0.07045545 -0.1762394 -0.12902337
000190 ac cd 90 3e 2a 17 8e 3d 27 8a 3e 3e e5 e8 a0 3d
       0.28281915 0.06938012 0.18607388 0.07856921
0001a0 02 5d 59 be be 7a 83 bd 91 3d cb 3e 6e f9 25 3e
       -0.21226886 -0.064198956 0.3969541 0.16208431
0001b0 58 2c 21 3e b5 e9 df 3b 30 33 5c 3e 01 44 03 3f
       0.15739572 0.00683328 0.21503901 0.5127564
0001c0 8b d5 e1 3e 85 e6 88 bd bf c5 9e 3d 1b dc 82 3e
       0.44108233 -0.06684593 0.07752561 0.25558552
0001d0 25 5d cd 3e 48 ae 94 3e 39 03 02 bd b8 60 02 bc
       0.40110126 0.29039216 -0.031741355 -0.00795763
0001e0 87 ba 3f be 2f 78 53 3d a3 ba 76 3e 98 a7 6f bd
       -0.18723498 0.051628288 0.24094634 -0.05850944
0001f0 77 e0 78 3e f7 82 13 be f8 4d 82 be e1 86 68 bd
       0.24304377 -0.14405428 -0.2545011 -0.056769256
000200 bd 06 8d 3e 69 b3 c2 3e 17 f2 ad bd 9c 91 dd 3d
       0.27544203 0.38027504 -0.084934406 0.108187884
000210 c1 e0 9f 3e 6f 4c cd 3e 4d 2c 8e 3e 3b 97 72 3e
       0.3122616 0.40097377 0.27768174 0.23690502
000220 8e 58 42 3e 9a 5e 02 3e f8 21 40 bb 37 27 1c be
       0.18979093 0.127314 -0.0029317122 -0.15249334
000230 40 96 7e bd 67 bf 24 bd bb c0 fd bd 56 4b 1b 3e
       -0.06215501 -0.040221598 -0.12390276 0.15165457
000240 15 5f c9 3d d0 9d b3 bd 3c 81 7d 3c 33 20 62 3d
       0.098325886 -0.08770335 0.015472706 0.05520649
000250 14 f2 37 3e 3a df 38 3e b1 cc d5 bd 4a a4 1d 3e
       0.17963439 0.18053904 -0.104394324 0.15394703
000260 9a 78 0b bd 1c f1 5a bb 61 7d 59 be 41 ea 38 be
       -0.03405056 -0.0033407873 -0.21239235 -0.18058111
000270 f0 6e 2b be 18 dc d4 bd b5 81 11 3e 62 1f bd bd
       -0.16741538 -0.10393542 0.14209636 -0.092345014
000280 ea 34 40 be a6 90 5c 3d 69 0b 97 3d 80 f9 06 3e
       -0.18770185 0.053848885 0.07375223 0.13181114
000290 bd 10 01 be 2d 22 54 3d e9 26 66 bd 5c d0 07 bc
       -0.12604041 0.051790405 -0.05618945 -0.008289423
0002a0 10 61 0a be 06 b6 6b bd fa a0 67 bc 2f 60 08 3e
       -0.13513589 -0.057546638 -0.014137501 0.13317941
0002b0 ac 75 d4 3d b1 19 09 3e d3 b4 9b 3e 10 6d 05 3e
       0.10374007 0.13388707 0.30411395 0.13029885
0002c0 48 da be 3d 82 6e a5 3a b4 d3 33 be 29 2e ec 3d
       0.093189776 0.0012621435 -0.17561227 0.11532242
0002d0 dc 99 26 be 02 08 fd bd b2 ef 89 be a8 af 4e be
       -0.1626963 -0.12355043 -0.26940686 -0.20184195
0002e0 71 92 90 be d7 ec 02 3e 1a 27 4b be ac 25 4f be
       -0.28236726 0.1278566 -0.19839135 -0.20229214
0002f0 f3 7b f3 bd fa bc 38 be aa 53 1a 3e ed 1a 98 3d
       -0.11888876 -0.18040839 0.15070978 0.07427011
000300 8a 8d 58 3d d3 a1 cd 3d 77 c4 82 3e a2 15 82 bc
       0.052869357 0.10040631 0.25540516 -0.015879456
000310 ee 7e ae 3e 4a 05 d2 3e a7 6a c6 3e 72 04 d0 3b
       0.34081215 0.4101966 0.38753244 0.006348186
000320 25 f1 90 3d 0c 85 06 be 7e 4e 5d 3e 37 1a 3f 3b
       0.07077245 -0.13136691 0.21611974 0.0029159912
000330 7e 87 4d 3e b3 e4 4b 3d bb 5b ce 3c 19 d3 b0 3d
       0.20071217 0.04977865 0.025190225 0.08634014
000340 94 76 4e 3e 5a c4 88 3e 33 55 4b 3d 5d a4 91 3d
       0.20162421 0.26712304 0.0496418 0.07111428
000350 cb 42 0e be 77 1a 8d 3e d0 af b7 3e bd 67 c5 3d
       -0.13892667 0.27559254 0.35876322 0.09638927
000360 7d 71 48 3d ef c4 66 be b2 08 84 bd 89 ee 92 3e
       0.048936356 -0.22536062 -0.06446971 0.28697613
000370 d4 de af be fe eb b4 bc 68 b7 a1 be b1 91 73 be
       -0.34349692 -0.022085186 -0.3158524 -0.23786046
000380 d3 b9 c0 3d 7d 4c b8 bd 99 02 be 3c dc da 90 3e
       0.09410443 -0.08998964 0.023194598 0.28291976
000390 a3 c9 b3 3e 05 b6 ba 3e fb a8 e2 bc 10 f7 0f be
       0.35114774 0.36466995 -0.027668467 -0.1405909
0003a0 7e a4 a1 3e 97 83 11 3e bf 2f b4 3d 81 47 92 bc
       0.3157081 0.14210354 0.08798169 -0.017856361
0003b0 0a 6f 50 be 96 f2 0a 3e 0c 67 4a 3e e3 8c a4 bd
       -0.20354858 0.13569102 0.19765872 -0.080346845
0003c0 8a 33 85 be 61 7a e5 bd aa 71 a3 3c 0f 15 e9 bc
       -0.26015884 -0.112049825 0.01995166 -0.028452424
0003d0 eb 58 fe bd b1 c2 b8 bd 2b 84 99 be c3 57 7e be
       -0.124193035 -0.090215094 -0.2998365 -0.24838166
0003e0 6b f9 5c be b6 87 a3 3d
       -0.2157952 0.07984869

conv1.bias f4 [10]
000000 8d 36 2e 3e c1 7d b6 bd 6d 2c 2e 3d 5a 6e eb 3d
       0.17012997 -0.089107044 0.042522836 0.11495657
000010 c0 b1 41 3e b0 b3 53 3c 37 7c ff 3d 65 34 f7 3d
       0.18915462 0.012921259 0.12474864 0.1207054
000020 dd 41 6d 3d 26 51 7c 3d
       0.05792414 0.061600827

conv2.weight f4 [20, 10, 5, 5]
000000 57 8d 51 3d 5c a6 0c 3d 66 47 c2 bd 76 c1 d9 3c
       0.051160183 0.03433834 -0.094862744 0.026581507
000010 82 fe 00 3d 4a 2e 6b bd 80 ed 1d 3b d7 23 cd bd
       0.031492718 -0.05741719 0.002409786 -0.100166015
000020 ee c5 38 3d 71 39 92 bb b2 3d c5 3c ef cb 92 3c
       0.045110635 -0.004462414 0.02407727 0.017919509
000030 fa 42 61 3c 6d fb 84 3d 20 ac 05 bc 1f 80 70 bd
       0.013748879 0.06493268 -0.008158714 -0.058715936
000040 42 88 28 bd e8 f9 16 3d fa c8 44 3c 3d af 92 3c
       -0.04114557 0.036859423 0.012010807 0.017905826
000050 4a de cd bc 5f f9 c0 3c a1 61 8c 3d 95 b0 1b 3d
       -0.02513041 0.02355641 0.06854559 0.0380102
000060 88 59 66 bc a5 e7 99 bc 6b 1d a6 bd f3 9e 7b bc
       -0.014059432 -0.018787215 -0.0811108 -0.015357721
000070 ac 87 c5 bc 78 b6 7e 3d b1 96 a0 bc 4e 37 a4 bd
       -0.024112545 0.062185735 -0.019603105 -0.08018361
000080 ad 18 13 3c ee 46 26 3d 4e 03 69 3c 2a 02 97 bd
       0.008978051 0.040594988 0.014221979 -0.0737346
000090 45 49 f9 bc 57 92 b8 3c 5b e0 80 bc 6a 2c 50 bd
       -0.030430445 0.022530718 -0.015731981 -0.050823607
0000a0 78 19 19 bd d0 78 32 3a 16 bf 15 3d 51 f9 0e bd
       -0.037377805 0.00068081636 0.036559187 -0.034905735
0000b0 71 27 14 bd 72 0b 3b bc 51 8d b8 bc 59 f6 99 3c
       -0.036170427 -0.011416303 -0.022528322 0.018794226
0000c0 80 97 73 bd 48 22 18 3c f0 8d 89 3c 11 d8 18 bd
       -0.059470654 0.009285517 0.016791314 -0.037315432
0000d0 e6 fd 9f bc fe 6e 3c 3d ca 96 9e 3d 5d d7 ae bd
       -0.019530248 0.046004288 0.077436045 -0.08537171
0000e0 77 49 c6 bb 8b 77 be 3d 6f b9 c3 3d ca 2a c9 3c
       -0.006051238 0.09300145 0.09556853 0.024556536
0000f0 d4 b8 e7 bb 65 f1 1c 3d 24 0a 47 3d a1 b9 14 3b
       -0.007071594 0.03831615 0.048593655 0.0022693651
000100 b8 ba 7b ba ca a6 c4 bc f3 f8 2f bd c6 41 8f bc
       -0.00096027134 -0.024005312 -0.042962026 -0.017487418
000110 88 22 9e bd a4 5c 71 bd 5e 07 f5 3c 4e c8 0f bd
       -0.0772143 -0.05892624 0.02991074 -0.035103135
000120 6f a1 b8 bc 50 47 5e bd 84 84 bb bc 34 5d 35 bc
       -0.022537915 -0.054267228 -0.022890337 -0.011069585
000130 52 6f 6f bd 54 35 34 bd 7d f2 6b bb 44 a1 00 bc
       -0.058455773 -0.04399617 -0.0036002689 -0.007850949
000140 ce 81 1e bd 3a 89 59 bd b5 01 7a bd ec 23 2c 3d
       -0.03869801 -0.053109385 -0.061036784 0.042026445
000150 59 43 0c bc 1d e9 c1 bc 6f 80 0f bd 54 75 57 bd
       -0.008560979 -0.023670727 -0.035034593 -0.052602127
000160 ff 8b 92 bd f2 bc fc bc 58 52 7a 3d 4d dd 09 3d
       -0.071556084 -0.030851815 0.061113685 0.033658314
000170 ec 33 65 bc be 3f a0 bc 83 68 52 3d 22 6e 2a 3d
       -0.01398943 -0.019561645 0.0513692 0.041608937
000180 4b b9 a5 3d ab 48 69 3d 7d af 63 3d b3 d8 46 39
       0.080919825 0.056954067 0.05558728 0.00018963478
000190 cb 27 15 3c 76 c8 cc bd d8 93 21 3a a7 54 45 3d
       0.009103726 -0.099991724 0.0006163693 0.048176434
0001a0 d6 e7 fb 3d 54 8b 2c bd 79 96 e3 bd b3 4b 8a bc
       0.123000786 -0.04212506 -0.11112685 -0.0168818
0001b0 01 f1 b7 3d e4 fb 29 3c 2d 01 a4 bd 6e 7a 85 3d
       0.08981515 0.010374997 -0.08008037 0.06517492
0001c0 6c ef 6e 3d d8 84 42 3b 72 ef 89 bb a1 2a db bc
       0.0583338 0.0029681232 -0.0042094523 -0.026753725
0001d0 07 97 a8 bc 7c c6 81 3d fb 73 a1 3c 31 2f 41 bd
       -0.020579828 0.06336686 0.019708624 -0.047164146
0001e0 64 8e 6d bc c4 48 e2 bd 75 41 6e bd e9 a7 ee bc
       -0.014499281 -0.11049035 -0.058167893 -0.0291328
0001f0 78 dc 83 bd 86 35 3b 3d e9 ac f0 3c 32 c8 73 3d
       -0.064385355 0.04570534 0.029379325 0.059517093
000200 b5 aa 82 3d 88 1b 6e 3a e4 e9 3e bc b0 a5 47 3d
       0.06380216 0.0009083082 -0.011652444 0.048741996
000210 e2 1a 84 3d 4c 49 03 3d a5 23 66 3d 70 2a 75 3c
       0.0645044 0.032052323 0.056186337 0.014963731
000220 f0 76 d8 3d 32 54 bb 3d 41 01 99 3d 90 64 c3 bb
       0.105695605 0.09146918 0.07470942 -0.0059629157
000230 de 9e 2f bd 8d 71 7c 3d 5f 19 33 3c b3 25 6f bd
       -0.042876117 0.061631728 0.010931342 -0.058385562
000240 03 f4 91 bd 1b 78 c0 bd 0c be a3 bd 4e 3b 9e bd
       -0.0712662 -0.09397908 -0.07995233 -0.07726155
000250 6e 9f cd 3c 9c 8e 36 bd b2 ba a2 bc 33 32 41 3c
       0.025100436 -0.044569597 -0.019864414 0.011791754
000260 5d c6 c9 3c 76 2f c7 bc 51 2b 0b 3d e4 ef 21 3d
       0.02463072 -0.024314623 0.033976857 0.03953542
000270 36 2c 62 bd ca 2c 84 3d 32 f2 09 bd 81 b4 0b bd
       -0.055217944 0.06453855 -0.03367824 -0.03410769
000280 d2 dc 4c bd fe b2 62 3d 36 a1 97 3c 1d 15 49 3d
       -0.05001528 0.05534648 0.018509489 0.0490924
000290 a2 ef 02 bc eb d2 f3 3c 69 16 cf bc b8 4b 23 bd
       -0.007991703 0.02976366 -0.02527924 -0.039867133
0002a0 44 05 38 3c 78 1b c6 bc fb 3b 74 3c 0b 51 e0 bc
       0.011231724 -0.02418302 0.014906879 -0.027382394
0002b0 42 8d 41 3c cd 36 80 3c 58 0b d8 bb cc 67 85 bd
       0.011813464 0.015651131 -0.006593149 -0.06513938
0002c0 c1 cb 13 3d 56 72 ca bc be 3f c1 3a ea 72 89 3d
       0.036082987 -0.024712723 0.0014743728 0.06711371
0002d0 02 5c 2d bd 91 07 a3 3d 1b 9e c3 bd d2 c6 cc 3c
       -0.042324074 0.079604276 -0.095516406 0.024997149
0002e0 74 8f e6 3c 7d 66 64 ba ac d7 5c bd 9e 63 d8 3c
       0.028144576 -0.0008712782 -0.05391662 0.026414689
0002f0 c5 d8 02 3c a7 ea 56 bc c8 6a 60 3c b5 fc 7e 3c
       0.007986252 -0.013117469 0.013697334 0.01556318
000300 3f 60 c6 3d 22 14 95 3d 44 ce eb 3d 9d f3 a0 3d
       0.09686326 0.07279231 0.115139514 0.078589655
000310 ce 86 c8 bb 56 f5 d2 bc 21 05 ed 3c ca e8 51 bd
       -0.0061195856 -0.02575175 0.02893311 -0.051247396
000320 c3 67 83 3b 6f 6a 86 bd 69 ad e6 3c 85 29 d9 3c
       0.004010172 -0.06563269 0.02815886 0.026509056
000330 34 b7 eb bc 89 2b d9 bb e1 cc 87 bd c4 9f 16 bd
       -0.028773881 -0.0066275042 -0.066308744 -0.036773458
000340 4a 43 99 3c 2e 94 ba bc c7 77 6f 3b 0a bf 2c 3b
       0.018708844 -0.022775736 0.0036539899 0.0026358985
000350 91 9d 8f 3d e8 c3 25 3d 44 cf 20 3d e3 d6 51 3d
       0.07012475 0.040470034 0.039260164 0.051230323
000360 a3 fd 1a bd 7a 6a 29 3d f3 a3 50 bb 6b 65 c3 bd
       -0.037839543 0.04136131 -0.0031836003 -0.09540828
000370 80 10 0c bd 9e 2b 7f bd 2b bf b7 3c c9 f0 0a 3b
       -0.034195423 -0.062297456 0.022430023 0.0021200648
000380 aa d9 78 3c 17 82 e8 3b 62 70 a8 bd 0f 81 11 3d
       0.015188614 0.007095586 -0.0822456 0.03552347
000390 69 15 9e 3c 06 40 2c 3c da 2c b0 3c 6e 93 71 bd
       0.019297319 0.010513311 0.021505762 -0.05897849
0003a0 32 0e d9 3c 31 ae 86 bd 24 dd 1c 3b ab a7 c4 3c
       0.026496027 -0.06576193 0.002393552 0.024005732
0003b0 ca 44 68 3d da b8 8d bc 5a e5 20 bd eb 94 0e 3d
       0.056706227 -0.017300058 -0.039281227 0.034809988
0003c0 aa ed b8 bc b0 9d 88 bb 94 8c 8d bc 77 0d c8 bb
       -0.022574265 -0.0041691884 -0.017278947 -0.0061051208
0003d0 0e 9c 07 bd 62 55 8d bd 79 bf 21 bd eb 33 f0 bc
       -0.03310781 -0.06901051 -0.039489243 -0.029321631
0003e0 b3 1f 7a 3d 70 50 3c bd 4f da 37 bd bb 2e b8 3c
       0.061065387 -0.04597515 -0.04488593 0.02248322
0003f0 fc 8f 54 bd 00 9a 01 3d e0 55 04 3d 37 33 81 bd
       -0.051895127 0.031641006 0.03230846 -0.063085966

conv2.bias f4 [20]
000000 61 c9 ca 3c df fc 6b bc e4 ac 22 3d 12 a4 9e bc
       0.024754228 -0.014403551 0.039715663 -0.019365344
000010 4b 5e 5f bc 67 87 e0 bc f5 27 4f bd e7 58 63 bc
       -0.013633321 -0.027408315 -0.050575215 -0.013876176
000020 a8 42 54 bd d6 2d d8 bc f8 28 22 3c a2 04 6a bd
       -0.05182138 -0.026389044 0.009897463 -0.057133324
000030 e4 0c 4f bd 8b 7e 8a 3d 3c f1 15 bd 96 fa 89 bd
       -0.050549403 0.067624174 -0.036607012 -0.067372486
000040 20 93 26 bc fa d4 8f bd e3 8b 7b bd e2 81 7f 3c
       -0.010166913 -0.07023044 -0.061412703 0.015594931

fc1.weight f4 [50, 320]
000000 75 06 a8 bd 50 db 2c bd 76 bb 1e bb 47 13 c4 bc
       -0.082043566 -0.04220134 -0.0024220622 -0.023934973
000010 0b 5e 3f 3d b0 eb 18 bd 90 f6 9c 3c 9b 8a 07 bc
       0.046720546 -0.037334144 0.019160539 -0.008272792
000020 94 b8 46 bc d4 12 a5 3c cd 17 1f 3d 03 7c 2e 3d
       -0.012128968 0.02015058 0.038841058 0.042598736
000030 d7 89 5a 3c 01 00 90 bd 32 1c 25 bc 3f 0d 37 bc
       0.013338528 -0.07031251 -0.010077523 -0.011172592
000040 4c 2b 3f bd d6 7a a7 3c db 1b ac bc 9b 59 4a 3c
       -0.04667215 0.020444315 -0.021009376 0.012350465
000050 db f8 a0 3c 39 36 8f bc cb 7b 0c 3d 4e 91 f4 3b
       0.019649914 -0.01748191 0.034297746 0.0074636107
000060 a4 f7 cf 3c f2 96 9c bd 61 00 2c 3d eb 05 20 3d
       0.025386639 -0.07645978 0.04199255 0.039068144
000070 ea ff f6 bc 4e c1 61 bd 1b fe 45 3b b4 f7 bb bc
       -0.030151326 -0.05511599 0.0030211273 -0.022945262
000080 2c 4a 05 bd 37 b2 8c bc 37 8b 83 bd 51 61 89 bd
       -0.03254144 -0.017174823 -0.064230375 -0.06708015
000090 e9 81 a8 bb 93 da ad 3c 43 ca 3a 3d c8 16 5a 3d
       -0.0051424396 0.021222388 0.045603048 0.053244382
0000a0 91 59 54 3d 17 21 45 bc df 86 1b bd df 9b 9b bc
       0.05184323 -0.012031815 -0.03797042 -0.018995224
0000b0 67 aa 71 bc 45 85 a9 bc e8 56 73 3d 6f 3c 6b bd
       -0.0147501 -0.02069343 0.059409052 -0.05743068
0000c0 7f b1 07 3d 91 46 b2 3d f5 d2 4a 3d 30 34 22 3d
       0.033128258 0.08704866 0.04951759 0.03960055
0000d0 dc 81 f1 bc 21 e4 1c 3b 40 e5 8a bd 2a d2 07 3d
       -0.029480867 0.0023939686 -0.06782007 0.033159412
0000e0 34 8b 06 bd 77 49 04 bd 88 84 91 bd f7 de 60 bd
       -0.0328476 -0.032296624 -0.071053565 -0.054900136
0000f0 f8 51 64 bd 82 20 f6 bc c4 09 37 3c 82 59 93 bd
       -0.055742234 -0.030044798 0.011171762 -0.07194807
000100 2e 1c 6b 3c ca 96 21 bb 0a c3 a1 3b aa dc 42 bc
       0.01434998 -0.0024656528 0.0049365805 -0.011893431
000110 7b f5 3d 3c 9b c8 9a bc e5 c6 19 bd c4 54 e7 bb
       0.011594172 -0.018894484 -0.037543196 -0.0070596654
000120 b7 1f e4 bb 75 be 17 bd 0d f1 9c 3c 3a 10 4a 3d
       -0.0069617885 -0.03704687 0.01915791 0.04933188
000130 9a 98 3c bc 66 fe 5b 3d 28 5d 03 3d 10 c3 8c 3b
       -0.011510992 0.05370941 0.032071263 0.004295714
000140 7a 95 28 bd 79 95 3f 3d 1a 2b 97 bc 68 b0 ab bd
       -0.041158177 0.046773408 -0.01845317 -0.08383256
000150 82 5e 8d bc 8e c7 32 bb 66 08 38 bd 54 07 5c 3c
       -0.017256979 -0.0027279588 -0.044929884 0.013429482
000160 a8 24 1d bc ab 2d 40 bc ba 3a bd 3a 90 d6 5e 3b
       -0.009591259 -0.011729638 0.0014437058 0.00340024
000170 35 6f 49 bc 0e e0 82 3d 87 7d a1 3d db 63 b6 bc
       -0.01229458 0.06390391 0.078852706 -0.022264412
000180 f1 84 54 3c 26 52 33 3d 80 4e 9f bb bf 24 9b 3a
       0.012971149 0.043779515 -0.004861653 0.0011836513
000190 d7 18 77 3d aa 4a 1f bc de e7 34 bc e1 0c 88 3d
       0.060326423 -0.009722391 -0.01104161 0.066430815
0001a0 45 91 e7 3b 8a ad 14 bd b4 83 60 3d 66 32 6c 3d
       0.007066878 -0.036298312 0.054813102 0.05766525
0001b0 0e 46 57 3d 07 f1 42 3c c3 14 6f 3c 5c 97 2e 3d
       0.052557044 0.011898286 0.014592352 0.042624816
0001c0 ca a0 d3 bb 8b 8e 24 bd 21 4b 85 3d 89 d6 21 bc
       -0.0064583765 -0.040175002 0.0650847 -0.009877809
0001d0 e1 13 68 3c 20 c8 02 3c f0 9b 87 bb e0 a1 2b 3d
       0.014164896 0.007982284 -0.0041384622 0.041902423
0001e0 70 c4 0d 3d e3 46 14 3c 8e 49 48 bd 28 7d 40 3d
       0.034611166 0.009050104 -0.048898272 0.04699436
0001f0 74 7c 08 bc 70 8f 25 bd 85 93 cf bc 80 08 b5 bc
       -0.008330453 -0.040419996 -0.025338897 -0.02209878
000200 4e f7 46 bd 25 33 8b bc 0e b3 17 3d 71 a8 9b bb
       -0.048575692 -0.016992161 0.037035994 -0.0047503044
000210 33 65 53 3c 17 75 04 3d 4b d6 10 3d e1 df 43 3d
       0.012902546 0.032338228 0.035360616 0.04782093
000220 6e c8 49 3d 1d 0a bc bc 5b 47 b0 bc c1 cf e2 3c
       0.04926341 -0.022954041 -0.0215184 0.027686955
000230 8f 7f d1 bb e1 1b e1 3c 10 1c 8a bd ab 6b 29 bd
       -0.00639338 0.027479114 -0.06743634 -0.041362446
000240 00 58 9e bc 3d 4e ca bc cf 79 24 bd 92 8b 10 3c
       -0.019329071 -0.02469551 -0.04015523 0.008822339
000250 f0 d6 89 3d 67 6a 6c 3b eb 28 36 bb a2 79 ac bc
       0.06730449 0.0036074163 -0.0027795385 -0.021054093
000260 e5 98 cb 3a 70 cc ca bc fb d0 c8 bc 45 e7 8d 3d
       0.0015533237 -0.024755687 -0.024513712 0.06928877
000270 d8 6e 36 3d ad 72 16 3d dd 78 53 3d cb 71 02 3d
       0.044539303 0.036730457 0.051628936 0.031846803
000280 3b b7 75 3c b6 e0 dd 3a 55 94 37 bd de 70 23 3c
       0.014997299 0.0016927931 -0.044819195 0.00997564
000290 4b 3f 06 3c 95 eb df bb 7a 6f 93 3d 1d 3b 41 3b
       0.008193801 -0.0068335035 0.07198997 0.0029484697
0002a0 a1 04 61 bd 45 00 27 3d 14 84 34 3b 99 ed 50 3d
       -0.054936055 0.04077174 0.0027544545 0.05100784
0002b0 c8 47 6c 3d aa 85 44 3d 1d 02 51 3d 3a 87 3d bc
       0.057685643 0.047979034 0.051027406 -0.011567885
0002c0 d8 76 d2 bc 84 a8 d9 bd 68 2d af bd e7 df 90 bd
       -0.025691435 -0.10627845 -0.085535824 -0.07073956
0002d0 b8 b7 9e 3c 9c 35 7d 3d d8 3a 5e 3a df 5b 7f bd
       0.019374713 0.061818704 0.00084773963 -0.062343474
0002e0 05 ff 59 3c 20 0f 25 bd 9b 16 94 3b 2a f5 b6 3c
       0.01330543 -0.040297627 0.0045192963 0.0223337
0002f0 4e 1c ff 3b 95 1f 70 3d 5c 12 07 bc 29 8f 66 3d
       0.0077853566 0.05862387 -0.008244123 0.056288872
000300 08 ff 0a bd 04 0d ac 3b 05 56 a6 bc 15 70 6a 3b
       -0.033934623 0.005250575 -0.02030469 0.0035772373
000310 44 bc 52 3c 67 f8 22 3d d5 cb 8a 3c 91 2f 84 3c
       0.012862269 0.039787676 0.016942898 0.016135963
000320 ec fa b9 3b 29 fd 93 bd 0f 73 97 bc d7 59 09 bc
       0.005675664 -0.07226021 -0.018487481 -0.008383236
000330 b5 60 17 3c 1e b7 9f 3b e7 7e d9 3c 45 fd e2 bc
       0.009239365 0.004874124 0.02654977 -0.027708659
000340 d7 86 a7 bc 0f 9f 93 3d b5 48 56 3d 80 33 11 3d
       -0.020450039 0.072080724 0.052315433 0.035449505
000350 19 06 e1 3c 9e e3 6d bd 70 d5 4c 3b ce 3b be bc
       0.027468728 -0.0580784 0.0031255148 -0.023221876
000360 af 6a b3 bd f9 58 53 bb c5 5b 7a bc 3d 74 60 bd
       -0.08760583 -0.0032249077 -0.015280669 -0.054798353
000370 ea 15 cb bd 4d 15 81 bc 93 20 d0 bc f7 c6 6a bd
       -0.09916289 -0.015757227 -0.025406158 -0.057318654
000380 8a 0e 50 3c 0e 13 7d bc 4e 33 b2 bd c8 d8 ae bd
       0.012698779 -0.0154464375 -0.08701192 -0.085374415
000390 16 37 e3 b9 1f dd d6 bc 01 f7 45 bd e1 20 c4 3c
       -0.00043337856 -0.026228486 -0.048331264 0.02394146
0003a0 f5 d5 b9 bc df 2c 9f 3d da d9 77 3c 05 24 99 3c
       -0.02268503 0.0777223 0.015127623 0.018693933
0003b0 ed 29 a1 3c b0 6d 0b 3d 6b 50 51 3c 19 57 6d 3d
       0.019673312 0.034040153 0.012775521 0.05794439
0003c0 e6 02 e6 3c 22 0d ee 3b b5 fa ad bd b3 7e 99 bd
       0.028077554 0.007264749 -0.08495084 -0.07494869
0003d0 e4 97 2a bd 26 a5 8d ba 13 7b 08 3d f5 0c 9a 3d
       -0.04164876 -0.0010806664 0.033320498 0.075220026
0003e0 08 73 6c 3d 16 4c cc 3c 9f 0e 6d 3d 38 45 88 bc
       0.05772689 0.024938624 0.057875272 -0.016634569
0003f0 38 9f 8c 3c 15 16 d6 bc 32 47 8c bc 9c 71 5d bd
       0.017165765 -0.026133576 -0.017123792 -0.054063424

fc1.bias f4 [50]
000000 01 e2 54 3d be ab ee 3c f6 9a 47 bb 8c 98 d2 bb
       0.051973347 0.029134627 -0.0030457354 -0.0064268764
000010 a1 56 97 3c 9f d1 1c bc e0 18 e6 3b 3b 59 fc bc
       0.018473925 -0.009571462 0.0070220083 -0.030804267
000020 9a 53 a6 3c 73 1c 37 3c 8e 09 d4 3c 37 24 78 3d
       0.020303536 0.011176216 0.025883462 0.060581412
000030 9e a4 c5 bc f3 cc 4a bb 15 c4 e9 ba a5 96 15 bd
       -0.024126347 -0.0030944913 -0.0017834926 -0.03652062
000040 b1 13 7b 3d d0 03 eb 3c ad 2b a7 3d 41 3a fb bc
       0.061298076 0.028688341 0.08162627 -0.030667426
000050 1a ba 09 3d 1c 4e d4 3c 28 5d 08 bd d3 ef 35 3d
       0.033624746 0.025916152 -0.033291966 0.044418167
000060 a0 9a 21 3d e6 eb 76 bb 92 95 a5 3d aa ea d6 bc
       0.039454103 -0.0037677228 0.08085169 -0.026234943
000070 0a ae f7 bc 33 c1 fc bc 10 65 ff bc a1 d1 4e 3d
       -0.030234355 -0.030853843 -0.03117612 0.050492886
000080 08 70 cf 3b ab 94 fb bc f7 9f 1e bd c3 4e a9 3d
       0.006330494 -0.030710539 -0.038726773 0.08266976
000090 39 dc 96 3c dc 5b 6d bd c0 df 11 3d 2c 90 c7 bc
       0.018415557 -0.057948932 0.035613775 -0.024360739
0000a0 c5 1c b2 3c f0 eb 9d 3d 3b a8 12 3d 9e 28 0a bd
       0.021742234 0.07711017 0.03580497 -0.03373014
0000b0 fb 18 ac bc b9 2c db 3c 58 e3 37 bd 86 bd 45 bd
       -0.021008005 0.026754724 -0.044894546 -0.048276447
0000c0 62 bd 61 3d ec 0f 38 3d
       0.05511225 0.04493706

fc2.weight f4 [10, 50]
000000 ff fa 09 3e 5d a5 8c bd 54 c9 36 3e ae de 09 3e
       0.13474654 -0.06867478 0.17850238 0.13463852
000010 9b 8f 0e be db 15 2f bd a5 af 31 be 9d 99 1c be
       -0.13921969 -0.042745452 -0.1735216 -0.15292974
000020 5f 06 92 bd 78 7c be bd d3 d4 6b be 2a 9b 0b be
       -0.071301214 -0.09301084 -0.23030405 -0.13633409
000030 8b 26 b7 bd e8 2b 2c 3e 0e 46 76 3e b8 68 13 3e
       -0.08942898 0.16813624 0.24050161 0.14395416
000040 0b 94 33 bd c0 de 4b 3e aa cb 06 3e 8c 5c b1 bd
       -0.043842357 0.19909191 0.13163629 -0.0866023
000050 14 7e d3 bd 7f db 1a be ae 20 14 bd e3 c1 8d be
       -0.10326782 -0.15122794 -0.03616398 -0.27686986
000060 31 8f 95 bd 56 8a 50 be c5 36 63 be fc 25 64 be
       -0.07302702 -0.20365271 -0.22188862 -0.22280115
000070 3c 62 38 3e 8b 9b 46 3e 5a ea 21 be b1 0c d9 bd
       0.18006223 0.19395272 -0.15812054 -0.10598124
000080 55 01 60 3e 7c b7 0b 3e 23 86 f9 bd e5 f7 66 3e
       0.21875508 0.13644212 -0.12183788 0.22555502
000090 3f 7e 0e 3e 5b 73 60 3d b8 4e 60 bd 68 ca 19 be
       0.13915347 0.05479751 -0.054762572 -0.15018618
0000a0 bc 5b f0 bd 7d f9 4e be 32 38 94 3d 39 4b d4 bd
       -0.11736247 -0.2021236 0.07237281 -0.1036591
0000b0 e6 ce 9e 3c 90 69 82 3e 6d 18 9d bd 9e 61 26 bd
       0.019385766 0.25471163 -0.076706745 -0.04062044
0000c0 9e 7e 3d 3d e0 6d b8 3d f8 b7 69 bd e1 49 0b 3e
       0.04626333 0.09005332 -0.057060212 0.13602401
0000d0 53 c7 46 be 8b f3 2a 3d 1c 78 9e 3c 70 ab 24 3e
       -0.19411974 0.041736167 0.019344382 0.16081023
0000e0 b7 39 64 be ff de 0a 3e 09 69 81 bd 9d 39 10 be
       -0.22287641 0.13561629 -0.06318862 -0.14084478
0000f0 1b bf 2c 3e 1f dd 71 3e 7f 4e 0a be 6d 80 30 be
       0.16869776 0.23619507 -0.13506506 -0.1723649
000100 66 c2 08 bd 72 5d 78 be fb dd 27 3e 4b cb ac bd
       -0.033388518 -0.24254397 0.16393273 -0.084372126
000110 91 33 52 be b1 86 53 bc 0a ee 11 be 22 39 d7 3b
       -0.20527484 -0.012910531 -0.14250961 0.00656809
000120 c5 e6 33 3e 15 41 0d 3e 2c cf 2c 3e c8 78 7e be
       0.175685 0.13794358 0.16875905 -0.24850762
000130 f9 92 90 be 9e d2 4a 3e fb 11 02 3e 85 66 11 3d
       -0.2823713 0.19806907 0.12702172 0.03549816
000140 01 31 41 3e 58 5f b6 bd 75 0e 46 be 4e f2 3b be
       0.1886635 -0.08904904 -0.19341452 -0.1835415
000150 ee 86 0f 3e 42 c9 83 3b 47 97 01 be 01 19 98 bd
       0.14016315 0.0040217945 -0.12655364 -0.07426644
000160 5e ef 21 3e 1d af 35 3e d3 fe 72 bd 2c d7 03 3e
       0.15813968 0.17742582 -0.05932505 0.1287505
000170 da 6b f0 bd 9b 59 64 be b1 4b 01 3e 5e 37 10 be
       -0.11739321 -0.22299807 0.1262653 -0.14083621
000180 40 75 1a be e0 ee 27 3e 14 1a 6a be d3 99 ad 3c
       -0.1508379 0.16399717 -0.2286151 0.021191513
000190 b2 99 9a bd 92 63 b7 bd df f1 8a bd b7 8b d1 bc
       -0.07548846 -0.089545384 -0.067844145 -0.025579317
0001a0 8f d3 cd bd 07 15 23 3e 80 79 e3 3d 0d fc 20 bd
       -0.10050117 0.1592599 0.11107159 -0.039302874
0001b0 37 fd 5d 3e 8b 50 45 3d 29 2d 71 bd d7 ec 7d 3e
       0.21678625 0.048172515 -0.05888096 0.24797378
0001c0 f7 a5 90 3d d1 f8 33 3e b0 4f 39 3e f6 80 ef 3d
       0.07062905 0.17575385 0.18096805 0.11694519
0001d0 3a fe 94 bd 96 19 a9 bc 9a db 0e be b1 cf 32 be
       -0.07275052 -0.020642083 -0.13950959 -0.1746204
0001e0 df 54 5b bd de 92 e8 3d 61 f0 d6 bd ce 2b 4c be
       -0.053547736 0.11356138 -0.104950674 -0.19938585
0001f0 27 df 9d bd 55 5d 60 bd 43 0e 37 be 70 3b b1 3d
       -0.077085786 -0.05477651 -0.17876534 0.08653915
000200 35 09 49 be d7 db 91 bc 5c d6 01 be 2d e4 dd bd
       -0.19632418 -0.017805023 -0.12679428 -0.10834537
000210 66 c2 4d bb 2d 1d 08 be 28 be 03 3e a6 5b 2a 3e
       -0.0031396388 -0.1329238 0.12865508 0.16636524
000220 a4 c4 a5 bd 8a 3f e2 bd d7 84 21 3e eb b7 c0 3d
       -0.08094147 -0.11047275 0.1577333 0.094100796
000230 84 49 26 3e 0a d6 2f 3e e0 ac d4 bd 86 3c fe bc
       0.16238981 0.17171493 -0.10384536 -0.03103472
000240 d6 95 83 3d 6b 01 57 3e 22 7e 32 bc 63 95 2f 3e
       0.06425063 0.20996635 -0.01089433 0.1714683
000250 cd 5d 0e be 6c 65 06 3e 11 eb 2d bd 90 68 47 3e
       -0.1390297 0.13124627 -0.042460505 0.19473481
000260 6a 8e 08 3e 08 df 10 be 3e 2c fe 3a 34 3e 3a be
       0.13335577 -0.1414758 0.0019391847 -0.18187791
000270 fa c5 f0 3d 48 2f 1b 3e cc 26 01 3b 6a b1 94 3c
       0.11756511 0.15154755 0.0019706963 0.018151004
000280 e6 00 64 bd 38 db 6a 3e 88 7e e5 bd 9e bb c4 bc
       -0.05566492 0.22935188 -0.112057745 -0.024015244
000290 36 b0 2c 3d 05 3d 98 bd 63 57 0b be 60 90 1e bd
       0.042160235 -0.074335136 -0.13607554 -0.038711905
0002a0 5a fd d4 bd ad d3 3a 3e fa 4a 4e 3e b2 70 6d 3e
       -0.103998855 0.1824481 0.20145789 0.23187521
0002b0 58 eb 65 3d 5e 3c e1 bb 0b ea 2f be 1b 58 de bd
       0.056132644 -0.0068736514 -0.17179124 -0.108566485
0002c0 92 b3 21 3e dd fc c1 bd 1d 42 1c 3e 4e dd e0 bd
       0.15791157 -0.09472058 0.15259595 -0.109797105
0002d0 04 ac 83 be a1 d5 4f 3e 01 30 d9 bd e9 06 09 3e
       -0.25717175 0.20296337 -0.10604859 0.13381542
0002e0 9a 61 ce 3d ea 29 9a 3d 95 a4 31 3e 00 a2 09 3d
       0.1007721 0.07527526 0.1734794 0.03360176
0002f0 ee 04 51 be 9e e2 c7 bd 0f 35 0c 3e eb ad 26 3e
       -0.20412037 -0.09760021 0.13692115 0.16277282
000300 39 92 19 be 02 76 05 3e 48 25 c8 3d 5f 2c ba bc
       -0.14997186 0.13033298 0.09772736 -0.022726236
000310 71 df d3 bd d1 24 65 bd 56 29 bb bd 8e c4 f4 3d
       -0.103453524 -0.055943314 -0.091387436 0.11951552
000320 7c 33 8b 3d ef 21 1d 3d 3b a9 a6 bd 18 b3 f6 3c
       0.06796929 0.03836244 -0.08137747 0.030114695
000330 3b 47 04 3e 8b cb 42 3e aa 9f 21 3e ce bd ae bd
       0.12917797 0.19022958 0.15783563 -0.08532296
000340 f9 c6 97 bd 48 51 0e be 88 90 53 3e ae 4f 76 bc
       -0.07410998 -0.13898194 0.20660603 -0.015033646
000350 7c b6 55 3e 09 14 59 be da 8f b0 bd ac 9c 0a 3e
       0.20870394 -0.21199049 -0.086211875 0.13536328
000360 3a 9a 29 bd 90 66 43 be 5f 7c f3 bd a7 d2 c8 bd
       -0.041406848 -0.19082093 -0.11888956 -0.09805804
000370 34 a9 f2 bd 71 a9 28 be b2 ba 65 3e f9 ce 2f 3e
       -0.11848679 -0.16470887 0.224345 0.17168798
000380 78 94 3d 3e 7d 85 4d 3e c6 7c 8b 3d 9f 9d 8f bc
       0.18513668 0.20070453 0.06810908 -0.017531214
000390 bb e8 e4 bc c7 54 94 bd c2 2c 0d 3e eb 64 50 3e
       -0.027943006 -0.072427325 0.13786605 0.20350997
0003a0 04 85 41 be ca 44 7b be ec 01 04 be b6 16 28 be
       -0.18898398 -0.2453796 -0.12891358 -0.16414914
0003b0 00 32 cc bd a5 de 93 3e 41 34 01 3e a1 23 76 bd
       -0.09970474 0.28880802 0.1261759 -0.060092572
0003c0 27 48 6c be 25 bd fd bd 24 7e 0a 3e 6a af 05 3c
       -0.23074399 -0.12389592 0.13524681 0.008159498
0003d0 2d 65 25 be 29 c8 c5 bb db 9b d3 bd a8 52 34 be
       -0.16151877 -0.006035824 -0.103324614 -0.17609656
0003e0 46 44 46 3e ce 29 2d be 12 03 6e 3d 4d 82 c9 bd
       0.19361982 -0.16910478 0.058108397 -0.09839306
0003f0 b2 27 21 bc 40 4b 57 be 3b a5 2f 3d eb 15 d9 bd
       -0.009836124 -0.210248 0.042882185 -0.10599884

fc2.bias f4 [10]
000000 85 b3 68 bd 21 46 57 3d 38 e8 52 bd 76 46 00 be
       -0.05681183 0.052557115 -0.051490992 -0.12526879
000010 b4 dc d1 bb 73 cc 9e 3d fc 06 03 be 66 1a fc bd
       -0.0064044837 0.07753839 -0.12795633 -0.123097226
000020 43 61 94 3d 4c 92 22 bc
       0.07245114 -0.009922575
